cases/nms_plugin_yolov3_err/onlynms_case/pluginzoo/NMS/tests/nms-out4.onnx (onnx, 717 bytes, 2 tensors)

W f4 [2, 2, 3, 3]
-0.11483644 -0.053240217 0.1934771 0.94100213 -0.3783642 0.1914325 0.50999343 0.39968574
0.5435696 1.7651486 -0.6705449 0.2087488 0.5691124 -0.5338548 -1.2628503 0.74601793
1.7679935 -0.7989568 -0.30067128 -0.06709629 0.31999213 -0.4008306 0.22255339 -1.1062151
0.37906125 1.0254613 -0.4416508 0.8025485 0.31308058 -0.08046638 -0.15296397 -1.3100893
-0.17540918 1.6073424 -0.30146018 -1.1851726
00000000: 5e2f ebbd 6a12 5abd dc1e 463e 84e5 703f
00000010: f4b8 c1be e206 443e ee8e 023f 9ca3 cc3e
00000020: 6127 0b3f 64f0 e13f d5a8 2bbf 3fc2 553e
00000030: 5ab1 113f b5aa 08bf 14a5 a1bf 08fb 3e3f
00000040: 9c4d e23f 6f88 4cbf 96f1 99be c869 89bd
00000050: 02d6 a33e ab39 cdbe 09e5 633e 7598 8dbf
00000060: 5114 c23e 5142 833f 0e20 e2be d273 4d3f
00000070: 194c a03e 8fcb a4bd 96a2 1cbe 02b1 a7bf
00000080: 779e 33be 65bd cd3f fd58 9abe bcb3 97bf

B f4 [2]
1.0 2.0
00000000: 0000 803f 0000 0040
